graph.pth (torch, 128207 bytes, 8 tensors)

gconv.0.fc.weight f4 [64, 102]
000000 a8 f1 63 bc 6f 16 e9 3d d8 cf fe bb 80 85 03 bd
       -0.013912596 0.11381232 -0.0077762417 -0.032109737
000010 5d 5b 22 3d 98 6d 4d 3c aa fd d9 bc ce 72 64 3d
       0.039637912 0.012538336 -0.026610214 0.05577355
000020 52 e4 fb bb 97 0b c2 3d 2f 4a 5c 3d 5d f1 68 3d
       -0.00768713 0.09474867 0.053781684 0.056870807
000030 12 8c 01 3d ca 02 6a bd b8 d6 0f 3d 98 f2 39 bd
       0.031627722 -0.057131566 0.03511688 -0.04539737
000040 8e f1 8f 3d 05 2a e0 3d 32 d0 45 bd 42 ef 80 3d
       0.07028495 0.109455146 -0.048294254 0.06295635
000050 78 3e 61 bc 0a 1a 69 bd c0 f7 7f 3d 97 19 02 bd
       -0.013747804 -0.0569096 0.062492132 -0.031762686
000060 0e 62 ff 3b 86 59 15 3d a0 64 be 3c 75 7b 6a bc
       0.0077936715 0.03646233 0.023241341 -0.014311661
000070 ad 28 a0 3d 1c 20 a3 3c f5 d1 0f bd 10 4c 2e 3d
       0.07820258 0.019912772 -0.03511234 0.042553008
000080 b8 fa 81 bd ed b5 01 bd 78 0a 23 3d be 9a c5 3d
       -0.06346649 -0.03166764 0.039804906 0.09648655
000090 e4 62 ad bc b2 f9 2b 3d 28 aa b4 bc ff a4 51 bc
       -0.021165319 0.041986175 -0.022053793 -0.012795686
0000a0 b2 b5 dc 3c 4a f8 71 bd 53 3e 9e 3d eb 63 9e 3d
       0.026942108 -0.059074678 0.07726731 0.077339016
0000b0 19 69 0a 3d ab 02 1f 3d 66 86 1c bc 09 f0 ac 3d
       0.033791635 0.038820904 -0.009553527 0.084442206
0000c0 8f e6 6d 3d 7e 33 84 bd ba 5f 00 3c 8e 04 d4 3d
       0.058081206 -0.06455134 0.007835323 0.10352431
0000d0 1e a3 b9 bc 00 b0 06 bc d2 c1 80 bd b2 55 e1 3c
       -0.022660788 -0.008220673 -0.06286968 0.027506683
0000e0 8c 36 ba 3d ee c4 0f bd ef de 75 3d 91 9f 91 bc
       0.09092435 -0.035099916 0.06002706 -0.017776283
0000f0 b0 d8 93 3c 7c 85 d9 3d a3 b7 96 3d 97 b9 d7 3d
       0.01804766 0.10621163 0.07359245 0.10533445
000100 42 d5 b0 3d c2 96 54 3d cb 20 92 3d db 5c 81 bd
       0.08634426 0.051901586 0.07135161 -0.06316539
000110 b4 59 d8 3d eb 50 6d 3c 35 3b d5 3d 18 a4 b0 3d
       0.105639845 0.014484624 0.104116835 0.086250484
000120 c5 40 97 bc f0 07 1c bb 60 05 79 3a f2 83 05 3c
       -0.018463502 -0.0023808442 0.0009499397 0.008149134
000130 26 d6 e4 3d 00 00 5c b5 b8 5c 46 3b 7f 33 27 bd
       0.11173658 -8.1956387e-07 0.0030267667 -0.040820595
000140 31 e6 38 3d a5 5a bc 3d 89 e0 89 bd 8e 15 b5 3d
       0.045141403 0.091969766 -0.0673228 0.08842002
000150 91 0d 07 3d 4d c2 e1 bc c8 79 ac bc 52 74 9b 3c
       0.032971922 -0.02755847 -0.021054164 0.018976364
000160 86 a3 a3 bd 48 54 e1 3a 2a a9 f7 bb 60 af 5c bd
       -0.07990174 0.0017191255 -0.0075580077 -0.053878188
000170 f8 9a de bc b2 8a 86 bc 24 31 13 bd 3b 78 af 3d
       -0.027173504 -0.016423557 -0.035935536 0.08567854
000180 7e 74 bf bd 32 f5 c0 bc 96 94 40 3d 75 03 62 bc
       -0.09348391 -0.023554418 0.047016703 -0.0137947695
000190 b5 a0 8c bd 54 31 25 bd f0 13 96 bb c1 a5 7f bd
       -0.0686659 -0.040330246 -0.0045800135 -0.062413935
0001a0 bc 94 ba 3c 40 e8 db b9 25 bd 96 bb ff e4 bb 3d
       0.022776 -0.00041943975 -0.0046001845 0.09174537
0001b0 e2 7c 72 bd ac 8a cd 3c 4b 35 73 3d 08 5b c1 3d
       -0.05920113 0.025090538 0.059376996 0.09441191
0001c0 4a cc 96 bc d0 1a dd 3d e4 b9 1f 3d b0 83 cd 3d
       -0.01840796 0.1079613 0.03899564 0.10034883
0001d0 e5 5a ad 3d a6 ca a2 bd 02 81 60 3c 0c 4c 4e bc
       0.084646024 -0.07948808 0.013702633 -0.012591373
0001e0 58 da d1 3c 2c 60 39 3b 10 6e ab bc f5 4d 96 3d
       0.02561681 0.0028286083 -0.020926505 0.07339088
0001f0 60 3b d9 3d fd 11 99 3d 14 e7 c9 3b cb 9b 19 bd
       0.10607028 0.07474134 0.00616158 -0.03750209
000200 b9 19 2a bd 5d 23 4d 3d 8b 86 41 3c 29 08 c5 3d
       -0.041528437 0.050082553 0.011811863 0.09620697
000210 8d 35 07 bd 08 f2 41 bd fe 7d 95 3b da 1d cb 3c
       -0.033010054 -0.04734996 0.0045621386 0.024794508
000220 13 d3 21 bd 7a a3 b7 3d d8 b1 5e 3d ee 6e 69 3d
       -0.039507937 0.089667276 0.054368824 0.056990556
000230 c8 9d 74 3d 2d 2a e0 3c a6 e9 04 3d ca 0b d2 bc
       0.059720784 0.027363861 0.032449387 -0.025640387
000240 b6 34 48 bd ef c6 a4 3d 98 08 2c 3d c7 0b 38 3d
       -0.048878394 0.08045756 0.042000383 0.044933107
000250 de dc 45 bd 96 26 20 bd a5 d8 8c 3d c7 7d cd bb
       -0.04830634 -0.0390993 0.06877259 -0.0062710973
000260 35 82 8e bd 8d f5 91 3d 10 8c e0 bc 88 4c 78 bc
       -0.06958429 0.07126913 -0.027410537 -0.015154965
000270 70 8c 4f bd 7b 18 8d 3d c0 12 f0 3c ac 68 f1 3c
       -0.05067104 0.06889435 0.029305816 0.029468857
000280 55 d5 cb 3c de 5b 7e 3d 34 32 46 3d 9b bc b4 3d
       0.024881998 0.06209933 0.04838772 0.08825036
000290 12 65 10 3d 3f fc 18 bd c8 50 9b 3d 3c 0e 3c 3d
       0.03525264 -0.037349936 0.07583767 0.045912012
0002a0 32 ef 9a 3d 88 e0 a9 3d 03 40 80 bd ee ba 86 bd
       0.07565154 0.08294779 -0.06262209 -0.06578623
0002b0 b2 37 b8 3d a2 40 b4 3d c9 8b c6 3d e9 4e 63 bd
       0.08994998 0.0880139 0.09694631 -0.055495176
0002c0 d1 84 cf 3d 0c 73 47 3d c2 b8 91 bb e6 52 0e bd
       0.101327546 0.0486937 -0.0044470737 -0.034747027
0002d0 f4 39 98 bc 5f d4 12 bd 82 f7 75 bd 68 33 35 3c
       -0.018582322 -0.035847064 -0.060050495 0.0110596195
0002e0 a5 5b 89 bc aa f5 7d bd 4c 68 ec bc 93 5c 5b bd
       -0.016767332 -0.06200186 -0.028858326 -0.053555083
0002f0 4e 6e c8 3b b6 9b 82 bd a4 d8 84 bd ba 1c f2 3c
       0.006116665 -0.06377356 -0.064866334 0.029554714
000300 ee 67 80 3d f0 67 0b 3d 5b 0f bf 3d 91 6a bf 3d
       0.06269823 0.03403467 0.09329101 0.09346498
000310 73 4f d9 3d ab 03 d9 bc 56 6c a7 3c dc fb f7 bc
       0.10610857 -0.026491007 0.0204374 -0.030271463
000320 f8 89 4b 3c 7f f7 b8 3d ac c7 98 3c 48 64 21 3d
       0.012423031 0.09031581 0.018649898 0.039402276
000330 43 ea 15 bd 1d a0 e0 bc b2 d4 60 3b 29 e7 9c bc
       -0.036600363 -0.027420098 0.0034306464 -0.019153195
000340 07 20 29 bb 60 bc d7 b9 96 b1 b2 3d 7e 5a b3 bc
       -0.0025806443 -0.00041148346 0.08725278 -0.021893736
000350 28 78 48 39 b5 0d a3 bb a3 1f 24 bd 8a b8 dc 3c
       0.00019118248 -0.0049759992 -0.040069234 0.026943464
000360 a7 84 46 bb 8e 19 e2 3a 96 da 64 3b 15 f8 c8 3a
       -0.003029147 0.0017250048 0.0034920326 0.0015332723
000370 45 27 2e bd 2b 7e b8 bc 90 0a 3e 3c cc 7f 76 bb
       -0.04251792 -0.0225211 0.011599198 -0.0037612794
000380 40 c3 5d bb a8 f5 68 bc 10 5c 3a bc 3e c4 11 3d
       -0.0033838302 -0.014218725 -0.0113744885 0.03558754
000390 45 d0 62 3d d8 bd bd 3c aa 5e 81 ba 7e 42 05 3b
       0.055374403 0.023161814 -0.0009870131 0.0020333822
0003a0 b0 99 3e ba 88 67 01 bd ba f1 30 3b 39 26 95 3d
       -0.0007270826 -0.031592876 0.002699955 0.07282681
0003b0 a8 87 bb ba 6b f4 c9 3c b4 1f 68 bc ac e1 15 bb
       -0.0014307396 0.02465268 -0.014167715 -0.0022870107
0003c0 19 c1 0b bc bf 78 e7 3c 90 94 19 bd 52 29 f1 bb
       -0.008529925 0.028255818 -0.037495196 -0.007359662
0003d0 74 c6 73 bc 2c 52 75 bc fa 9f 95 bc bb e6 ce bb
       -0.014878858 -0.014973205 -0.01826476 -0.0063141263
0003e0 73 e2 ca bb 5e 67 99 bc 06 f0 e9 bc 71 99 03 3d
       -0.0061915456 -0.018726047 -0.028556835 0.032128755
0003f0 5d b3 aa 3b 55 a6 f4 3b bb 00 fa bb bc aa d5 3c
       0.00520937 0.0074661174 -0.0076294816 0.026082389

gconv.0.fc.bias f4 [64]
000000 f9 a3 70 3d 5c b1 9a 3d 5d ef 8a bd d1 23 84 3c
       0.058750127 0.0755336 -0.06783936 0.01613036
000010 5b 6d 96 bc 14 3b 14 bb 1e 3e bb bd c8 ce ae 3b
       -0.018362692 -0.002261822 -0.09142707 0.005334709
000020 e4 af 37 3d c9 59 ef bc ca 5d a8 3d 4a 59 1b bd
       0.044845477 -0.029217618 0.08221014 -0.03792695
000030 bf 46 99 3d 8a 4e 0a 3d e9 78 76 bd 1e 4c 2f bc
       0.07484197 0.033766307 -0.060173903 -0.0106993
000040 b6 b6 3e 3d 1c 8e b8 3d 18 6a 70 bd f3 7f 20 3d
       0.046560965 0.0901148 -0.05869493 0.039184522
000050 2e 99 3d 3d aa 56 19 bd b0 c0 6a 3c c8 50 24 bd
       0.04628866 -0.037436165 0.014328167 -0.0401161
000060 20 46 cb bd e8 71 33 3c 6c 95 37 bd 9a 33 67 3d
       -0.09925485 0.01095245 -0.044820234 0.056445695
000070 0d cf bb 3d be d1 b9 bd 4e bd a2 bc b2 ae 58 bd
       0.09170351 -0.09073208 -0.019865658 -0.052900977
000080 46 d6 91 3d f3 f8 8d 3d 91 b0 e8 bb 5e 31 e1 bc
       0.071209475 0.06932249 -0.0071011265 -0.02748936
000090 2c 96 4e 3c 6a a7 a1 3c aa fe 91 3d 29 bd bc bb
       0.012609046 0.01973315 0.071286514 -0.0057598543
0000a0 bc d5 78 3d 87 31 b2 3d c4 84 9e 3b 4c 16 83 bd
       0.060750708 0.08700853 0.0048376042 -0.06400737
0000b0 84 82 84 bd d5 a9 e1 bb 3b 9b 07 3d 94 8f 8b 3d
       -0.064702064 -0.0068867006 0.033107024 0.06814495
0000c0 1f b7 5a bd dc 86 8d 3c 0d 36 9b 3d 7a a3 6c bd
       -0.053397294 0.01727622 0.07578669 -0.05777309
0000d0 06 00 b2 3c 69 d9 14 bd c5 62 95 3d 30 2f 68 bd
       0.021728527 -0.03634015 0.072942294 -0.056685627
0000e0 3e d1 40 bd 12 9c 54 3c 39 f1 91 bd 20 ed 3b 3d
       -0.04707455 0.012976663 -0.07126088 0.045880437
0000f0 33 d0 2a 3d db b1 90 3c ad bb 29 bd d0 99 d3 bc
       0.04170246 0.017662933 -0.041438747 -0.02583018

gconv.1.fc.weight f4 [64, 192]
000000 be e3 a0 bc b3 d2 3d bb 9f 09 d6 ba 00 e1 27 bd
       -0.019639846 -0.0028964698 -0.0016329772 -0.04098606
000010 23 7f 07 3c 7f 8b cc bb 2d 71 ed 3c 70 45 c0 3c
       0.008270058 -0.006242215 0.02898463 0.02347061
000020 83 1b 06 bd ee 54 3e bc 09 ba 00 bd 90 e0 ee 3b
       -0.03274108 -0.0116169285 -0.031427417 0.0072899535
000030 bf d0 78 3c ce 23 63 ba 2f be 0c bc b5 b0 2b 3d
       0.015186488 -0.0008664698 -0.008590265 0.041916568
000040 b9 7b 4b bd b0 98 c5 3c 21 e1 e2 3c 4a 45 9c 3c
       -0.049678538 0.024120659 0.02769524 0.019076008
000050 06 ed af bc 4f 89 64 bb 65 3b b5 3c 44 d5 df bc
       -0.021475326 -0.0034871881 0.022123048 -0.027323373
000060 49 a4 c0 bc b4 50 d0 bc 42 65 20 3b 8b 39 d2 bb
       -0.023515837 -0.025429107 0.0024474417 -0.006415551
000070 61 68 9e bc bd e5 62 bc 75 7d 3c 3c 79 01 21 3c
       -0.019336881 -0.013848719 0.011504521 0.009827011
000080 cf 11 6f bc f6 7f 26 bc 02 4f 99 3c 23 6c 2d 3b
       -0.014591648 -0.010162344 0.018714432 0.002646216
000090 48 d5 40 3b 2e de 93 3c 27 ab 9c bd 86 ff c1 3b
       0.0029424 0.01805028 -0.07649832 0.0059203533
0000a0 76 7f c1 3c bf 89 92 3c a4 7b 6f bc ce 19 28 bc
       0.023620348 0.017887948 -0.014616881 -0.010260059
0000b0 39 42 3d bb 18 5d be 3c 5c 81 32 bd 1c 9c 91 bc
       -0.0028878583 0.02323775 -0.043580398 -0.017774634
0000c0 d0 45 0d bb c7 79 08 3d bc df cc 3c 72 41 9e bb
       -0.0021556504 0.03331926 0.025009029 -0.004829579
0000d0 4a bc 13 3b 9c 5c 13 bd 46 14 a4 ba 12 46 1d bc
       0.002254265 -0.03597699 -0.0012518249 -0.009599226
0000e0 1f e9 4e bb af 54 38 bd 24 93 8c 3b df 19 1c 3d
       -0.0031572056 -0.045002636 0.0042900015 0.03811061
0000f0 3c 17 5a 3c 5c d0 62 3c 49 92 2d 3d 42 e7 3e bb
       0.013311204 0.013843622 0.042375837 -0.002912954
000100 77 4a 74 bc 56 be 02 3d dd 86 57 3b d6 d5 62 bd
       -0.014910332 0.0319198 0.0032886781 -0.05537971
000110 16 cd 92 bc 39 cc f9 bc 3e f8 18 bb 3e c9 18 bc
       -0.017920058 -0.030492889 -0.0023341323 -0.009325324
000120 70 22 dc bb 7d 59 f0 bc a3 17 32 bd b2 96 0c bc
       -0.0067179725 -0.029339546 -0.043479573 -0.00858085
000130 67 74 d4 3c 01 8d 17 bd a8 80 fa 3a bc 6d a0 bb
       0.025934411 -0.036999706 0.0019111829 -0.004895894
000140 5b 0f 69 bd cc b0 96 bc e0 e9 cb ba 8e 6e 07 3b
       -0.05689941 -0.01839485 -0.0015557371 0.002066526
000150 e3 0a 60 bd 5a 94 5b bb da eb 28 bd 12 72 f6 bc
       -0.054697882 -0.0033505172 -0.04124055 -0.03008369
000160 4a 75 39 bb 17 b9 a3 3c 0b d4 20 bd 21 d0 32 bd
       -0.002829867 0.019985719 -0.03926472 -0.04365552
000170 bb 84 93 bc c8 4a 20 bb 8a 9a 23 bb 41 82 7f bb
       -0.018007627 -0.0024458636 -0.0024963939 -0.003898755
000180 e8 82 02 bd f6 34 db bc 48 9e 2b bd e4 73 d4 3c
       -0.031863123 -0.026758652 -0.041898996 0.025934167
000190 4d 14 bc bc 6c 53 45 bd 9a 6f 16 bc c4 df ba 3c
       -0.022958899 -0.04817526 -0.009181881 0.022811778
0001a0 35 2c 17 bc b5 ef e3 bc 7e 68 06 bc 35 81 c1 bc
       -0.009226848 -0.027824262 -0.008203624 -0.023621181
0001b0 4b 7d 80 3c 28 4c 94 bb fa 0b 54 bc b7 5c 9b bc
       0.015684744 -0.00452568 -0.012942309 -0.018965108
0001c0 7e 6f 96 bb 2b e9 63 bd 40 35 85 bd f2 21 9c bc
       -0.0045909276 -0.05564229 -0.06504297 -0.019059155
0001d0 1c 0d af 3b 69 75 b3 3b e8 e4 ef 3c 31 3d 00 3b
       0.005342139 0.005476643 0.029283956 0.0019567723
0001e0 b6 90 29 bb b0 94 6f bd 80 91 84 ba d6 3b 08 bd
       -0.0025873608 -0.05849141 -0.0010114163 -0.03326019
0001f0 61 12 44 bc bf 86 10 bd 49 16 2e bc c6 9e 28 bd
       -0.0119672725 -0.035284754 -0.01062543 -0.041167043
000200 d3 34 63 bd aa 79 92 3c fe 08 5c 3c b9 95 6e bc
       -0.0554703 0.01788028 0.013429878 -0.014562064
000210 e1 df 52 3c e6 93 b9 3a 38 b9 9f 39 57 2d 0f 3d
       0.01287076 0.0014158457 0.00030464842 0.03495535
000220 8c d8 7c bc 04 b2 a7 3c 26 00 35 3c 5d 1c bb bb
       -0.015432488 0.020470627 0.011047399 -0.0057101683
000230 dc 5b 65 bd 5c 4a 0a bd 19 0a 52 bb 25 60 61 3b
       -0.055995807 -0.03376232 -0.0032049476 0.0034389582
000240 43 81 a4 bc 7a f0 d5 bc 4d b0 3d 3d 43 11 8e 3c
       -0.020081168 -0.026115645 0.04631071 0.017342215
000250 e1 cc 41 bd 65 00 98 3b f5 fa 29 bd c7 9d 43 bd
       -0.04731453 0.004638719 -0.041499097 -0.04775789
000260 44 92 e8 3c cc 4f 3c bb 3d 15 02 3d 42 a1 84 3c
       0.028390057 -0.0028734086 0.031758536 0.016190175
000270 7d 29 54 3c 51 01 ba bc 0f e1 d7 bc 52 55 7e bb
       0.012949345 -0.022705706 -0.026352433 -0.003880818
000280 18 a0 fa 3c a0 f4 33 3d 80 30 dd 39 08 26 2b bc
       0.030593917 0.043934464 0.0004218854 -0.010446079
000290 fd 88 cc 3c a2 17 12 3c 90 7f 06 bd ca 7d 9e 3c
       0.024967665 0.008916767 -0.032836497 0.01934709
0002a0 21 d7 65 bd d1 7e c8 bc 53 4e 0a bd 30 b0 a3 3c
       -0.056113366 -0.024474533 -0.033766102 0.019981474
0002b0 32 bb ae 3c 91 ed f8 bb df d8 19 3d 44 0f 42 3c
       0.021329496 -0.0075966795 0.03756034 0.01184446
0002c0 3a 45 f6 bc 20 ce f9 3b 0f 8a 0e 3d e0 4b 92 ba
       -0.030062307 0.007623449 0.03479963 -0.0011161529
0002d0 36 cd 39 bc 02 0d c8 bb a0 71 32 3d 2a d5 89 ba
       -0.01134043 -0.0061050663 0.043565392 -0.0010515798
0002e0 6d c1 c1 ba da 20 4e bd 24 4e d6 3b bf 9d f8 bb
       -0.0014782377 -0.0503243 0.006540077 -0.007587164
0002f0 b6 9e 8d bd 14 42 10 3d 76 2d ce 3b f0 89 25 bd
       -0.06915037 0.035219267 0.0062920405 -0.04041475
000300 35 6d 2c bb 3e d8 38 3b 9e 76 b9 bb 8a 55 e1 b9
       -0.002631021 0.0028205062 -0.005659892 -0.00042979076
000310 ee 22 a2 3a c3 42 e5 ba e4 a3 9b 3a a8 ed 20 bb
       0.0012370029 -0.001749121 0.0011874405 -0.0024555717
000320 ee 77 51 3a 9a 80 2c 3c 41 e3 93 bc 93 af f5 bb
       0.0007990588 0.010528708 -0.018052699 -0.0074977367
000330 94 71 cc 39 2d d7 bb ba 9d ae 81 ba ee 0f a7 ba
       0.00038994534 -0.0014331095 -0.0009893958 -0.0012745836
000340 6b 49 f9 3b 7c f3 4f ba bf 81 f0 3b 52 db b8 ba
       0.007607629 -0.00079327053 0.0073396857 -0.0014103448
000350 29 52 b6 ba 82 48 a0 3c 56 7c 48 3b 0e 61 10 ba
       -0.0013909984 0.019565824 0.0030591688 -0.00055076263
000360 b6 87 b0 ba ea 9b 6b bb c6 28 9e ba a2 8a 89 3c
       -0.0013468179 -0.0035951086 -0.0012066595 0.016789738
000370 d2 f9 68 bb 87 43 80 3c 98 72 d4 bb 18 b0 7e ba
       -0.0035549295 0.0156572 -0.006483387 -0.0009715571
000380 c0 60 81 3c 72 0a 46 bb 98 00 35 bc 38 f9 69 3b
       0.015793204 -0.0030218628 -0.011047505 0.0035701524
000390 28 60 93 ba 5a c6 65 3b d4 37 e4 3a fc 32 bd ba
       -0.0011243867 0.0035060854 0.0017411658 -0.001443475
0003a0 cc 47 4c 3b 20 31 cf 3a 7c 63 62 3a d9 bc 08 3c
       0.0031170724 0.0015807487 0.000863604 0.008345806
0003b0 0b a9 9c bc 97 5a 59 3a cf c7 97 3c 03 6c f7 3b
       -0.019123575 0.0008291392 0.018527893 0.007550718
0003c0 33 85 76 bb 77 c5 76 3b f7 7f 84 ba 27 ad c9 ba
       -0.0037616014 0.003765432 -0.0010108937 -0.0015386686
0003d0 20 14 1e bb ee db 25 3b 86 19 04 ba d0 76 73 bb
       -0.0024120882 0.002530809 -0.00050392037 -0.0037149675
0003e0 00 13 0c bb 7e 69 0e bc c3 ed 8c 3a d2 8b c9 3a
       -0.002137363 -0.0086921435 0.0010752011 0.0015376753
0003f0 fa 95 72 bb 55 07 5d bc 3d 6e 64 3b 82 ed ec bb
       -0.0037015663 -0.013490518 0.0034855746 -0.0072304616

gconv.1.fc.bias f4 [64]
000000 17 81 1b bd 76 68 08 bc ee 38 3b bc 9a 7d 0b 3d
       -0.037964907 -0.008325687 -0.011427147 0.03405533
000010 7f 63 8d bd ff 75 85 3d 8b c8 35 3d c9 66 24 bd
       -0.06903743 0.065166466 0.044380706 -0.040137086
000020 a6 9f dc 3c 6a d6 00 bc 52 bb 32 3d 0f 1c ad bd
       0.026931595 -0.00786362 0.043635674 -0.084526174
000030 96 05 c6 3c 0e 35 39 3d fc 9a b6 bc 81 7b bf 3d
       0.024172585 0.045216613 -0.0222907 0.093497284
000040 9b a6 9e 3d 51 6d fc 3c bb 22 da 3b 68 17 78 bc
       0.07746621 0.030813845 0.006656972 -0.015142299
000050 29 a6 5b 3d 44 1b 2c bd 97 37 7a bc 33 8e 43 bd
       0.05362526 -0.04201819 -0.015272043 -0.047743034
000060 23 fd 4d bc 67 28 49 3c 3d 78 c3 3c 52 3c f6 bc
       -0.0125725595 0.012277699 0.023861045 -0.03005806
000070 13 e5 ae 3d a9 72 82 bc 52 02 4d 3d ca db fd bb
       0.08539786 -0.015923815 0.05005104 -0.007747148
000080 e2 b3 25 bc 4a 8e 4e 3d d2 d9 f7 3c 02 13 87 3d
       -0.010113688 0.050428666 0.030255232 0.06595422
000090 ca b6 d7 bc f0 e2 2c 3a ac 88 bd 3c 9f a5 39 3d
       -0.026332278 0.00065950956 0.02313646 0.045323964
0000a0 5a ed d2 3d eb 53 ca 3c 5a 1f ce bb 4f 11 39 bd
       0.102991775 0.024698218 -0.0062903585 -0.045182522
0000b0 bf c7 29 bd 7c 3d 8a 3b 6c 41 e2 3c 02 b3 be 3b
       -0.04145026 0.0042187553 0.027619086 0.0058196792
0000c0 9c 30 0f 3d 47 11 53 bc d5 a7 9d 3c 32 0f d5 3b
       0.034958467 -0.012882537 0.019245068 0.0065020556
0000d0 da 27 32 3d 74 7b 96 bc cf ca 53 3c 14 e6 88 bb
       0.043495037 -0.018369414 0.012926771 -0.004177818
0000e0 da 55 82 bb ca 6e 0c 3d 85 42 42 3d 7f b3 91 bc
       -0.0039775195 0.034285344 0.04742672 -0.017785786
0000f0 02 0a f9 3c fc 5c 93 3d 64 f0 ee bb c4 88 e8 bb
       0.03040028 0.0719547 -0.0072918404 -0.007096382

gconv.2.fc.weight f4 [64, 192]
000000 1e a6 13 3d ce 22 30 3c 6c 73 54 ba 7d e3 cc bc
       0.036047094 0.010750486 -0.00081043574 -0.025010819
000010 60 27 07 39 8b d2 8c bd 25 27 b2 3c 00 db 56 3c
       0.00012889272 -0.068760954 0.021747181 0.013113737
000020 c3 dd b0 3c fa b4 22 bb 14 ec 85 b9 18 be 6a 3a
       0.02159012 -0.0024827109 -0.0002554363 0.0008954718
000030 36 48 9b bc 48 f4 8e bd bf 5a f5 3c 36 0f 1a bd
       -0.018955331 -0.06980187 0.029950498 -0.037612163
000040 a4 3f 90 bd a1 1c 76 bd aa f2 75 3b 04 c1 be bb
       -0.070433885 -0.060085896 0.0037528672 -0.005821349
000050 85 a3 d2 3c 69 a4 8b bb fa fa 69 3b f2 99 de 3b
       0.025712738 -0.0042615426 0.0035702572 0.006793254
000060 42 7e 8c 3b 88 e0 5c bb 43 53 37 bd be e1 71 bc
       0.004287512 -0.0033703167 -0.04475714 -0.014763294
000070 97 4e aa bd e4 db 0b 3d 8e d0 a8 3b d5 1f 65 bd
       -0.08315771 0.03414525 0.005151815 -0.05593856
000080 2c 56 fb b9 d6 91 56 bd c0 c5 13 3b b9 9f ae bd
       -0.00047938654 -0.052385174 0.0022548288 -0.085265584
000090 66 1a 1d 3d 44 f8 6f 3a 41 03 79 bd a3 bf 93 bd
       0.038355254 0.0009154121 -0.06079412 -0.07214286
0000a0 ce 36 34 bd 6d 1c 0c bd 35 17 8e bc 7b 1b fa bc
       -0.04399758 -0.034206796 -0.01734505 -0.030530682
0000b0 0d c7 89 bc 18 e0 02 bb b1 e2 9c 3c 71 e5 d9 bc
       -0.016818548 -0.0019969996 0.019151064 -0.026598664
0000c0 69 04 44 3d a0 3c db ba be 94 29 3c a6 58 40 3b
       0.04785577 -0.0016726442 0.010350404 0.0029349714
0000d0 c4 2f 37 3d e2 84 89 3b 7f 50 25 3b ca 26 d0 3a
       0.044723287 0.004196749 0.0025224981 0.0015880701
0000e0 8c a1 e3 3b d5 5f f2 3a de 61 c2 bc cf 78 11 bc
       0.006946748 0.0018491695 -0.023728307 -0.008878901
0000f0 49 b7 07 3b 2e e2 07 bd 52 d1 71 3b ba be 12 bc
       0.0020708612 -0.033174686 0.0036898446 -0.008956606
000100 88 e7 17 3d f1 1b 53 bb 50 aa 72 39 93 74 12 bd
       0.03708604 -0.00322127 0.00023142365 -0.035755705
000110 18 44 33 3b de 48 fb bc f7 9f 78 bc e0 f3 5f 3c
       0.002735382 -0.030674394 -0.015174857 0.013668984
000120 a4 41 44 bd 4d d0 21 bd b3 89 ca 3a b8 f8 40 ba
       -0.047914162 -0.03950529 0.0015452415 -0.0007361281
000130 e5 5e 82 bd 33 9a 17 3d c8 67 00 3d 23 ac 27 3c
       -0.06365756 0.03701229 0.031348974 0.010233912
000140 f1 4f 5c bd fc 6c a8 bd 80 17 d8 bb 63 ca 34 3c
       -0.053787176 -0.08223912 -0.0065945983 0.011034581
000150 75 c6 81 bb 7c e8 2e bd e6 48 04 ba 38 7d 58 bb
       -0.0039604255 -0.042702183 -0.0005046263 -0.003303362
000160 06 6b 61 3b 83 b0 34 bd a0 91 a9 bd ec 05 57 bd
       0.0034396066 -0.044113647 -0.08279729 -0.052495882
000170 d2 c3 d1 bb 9d 75 60 bd f1 5e 2a bd 6c e2 12 bd
       -0.0064015174 -0.054799665 -0.04159445 -0.035860464
000180 90 ff dc ba cb 6c 95 bd c0 a0 06 3d 8d ff 5f 3c
       -0.0016860832 -0.07296141 0.032868147 0.013671768
000190 bd 75 32 3b e5 04 1f bb 57 90 41 bb b4 55 bc 3c
       0.0027230822 -0.0024264392 -0.0029535496 0.022990085
0001a0 5f 3b c2 3c b8 53 12 3d da 7e 5f bb 96 b7 e5 3c
       0.023709951 0.03572437 -0.003410271 0.028041642
0001b0 11 14 55 bd 08 32 36 3b 97 16 3c bd ca e2 ae bd
       -0.05202109 0.0027800817 -0.04591998 -0.0853935
0001c0 7d b9 13 bd 34 44 08 bb 05 d2 89 bc bb 2f b5 3c
       -0.036065567 -0.0020792605 -0.016823778 0.022117486
0001d0 92 0c 8a 3c aa 36 9b 3a 60 cf f4 39 e2 f7 87 ba
       0.016851697 0.0011841853 0.00046693813 -0.0010373557
0001e0 51 5c 8c bc 5d 80 30 3d 9a 85 5d bd 5e 27 ed ba
       -0.017133864 0.043091167 -0.05408249 -0.0018093397
0001f0 30 a2 dc b8 b3 fc 9d bc 2b b2 e7 bc ff d7 cd 3c
       -0.00010520627 -0.019285535 -0.0282832 0.025127409
000200 e1 7c 8e 3d b0 6c 08 b9 90 f4 5a 3b 47 3f 1e 3d
       0.069574125 -0.0001301046 0.003340993 0.038634565
000210 60 1a e6 3a 5e 4d bb bd 7a 00 48 ba 6f 2b a6 3b
       0.0017555468 -0.09145616 -0.00076294655 0.0050710957
000220 7a 8d 60 3c 8b 22 79 bd d5 7d 5e bc c6 26 88 3d
       0.013705606 -0.06082396 -0.013579805 0.066480204
000230 4e 9a 89 3c 2f 22 1f bd 76 ea b0 3c 40 6e 7c bd
       0.016797211 -0.03885096 0.021596175 -0.06162858
000240 14 52 96 bd d7 20 b6 bc a5 e2 db bc 2d c3 25 bc
       -0.07339874 -0.022232456 -0.026841471 -0.010117334
000250 aa e2 70 3c a0 39 b3 bb f8 c2 a1 39 84 fb 1f 3c
       0.014702478 -0.005469516 0.00030853576 0.009764556
000260 94 82 9d ba ec 45 37 3c 3b 0f ed bc b6 b9 6a 3d
       -0.0012017065 0.011186104 -0.028937927 0.057306014
000270 2f 20 f9 bc 1b b6 c8 bc af 8e 81 bd f8 4e 00 bd
       -0.030410854 -0.024500897 -0.06326043 -0.03132531
000280 b8 35 a6 bc a7 62 84 bd ae 5a 99 bd d5 ae f4 3a
       -0.020289287 -0.06464129 -0.07487999 0.0018667827
000290 7e fb 0d bd 80 28 8a 3c fb 1b bf bd 88 e4 ca ba
       -0.03466367 0.016865015 -0.09331509 -0.0015479485
0002a0 e3 57 07 3d 67 a7 82 bd a4 ab d1 b9 7c 92 8f 3a
       0.0330428 -0.06379586 -0.0003999147 0.001095369
0002b0 47 ed 35 bd c4 a8 db 3b b3 d4 c7 bc 61 32 3a bd
       -0.04441574 0.006703468 -0.024393415 -0.0454582
0002c0 4b df 4a bd 0f c8 3f bc 23 8e 0c bd e0 37 ec 3c
       -0.049529355 -0.0117054125 -0.03431524 0.028835237
0002d0 2e 55 34 bc 98 63 05 3c aa 07 0a bc f2 4e 16 3c
       -0.011006637 0.008141421 -0.008424679 0.0091740955
0002e0 2e d9 e7 ba 08 d3 96 bd 68 df 90 bd c5 78 0d 3c
       -0.0017688626 -0.0736447 -0.07073861 0.008634751
0002f0 3e 93 6f ba eb 67 73 bd 64 d9 3b bd ba ca b2 3c
       -0.0009139067 -0.059425276 -0.045861617 0.021825183
000300 b5 1b e1 ba 43 e3 2b 3c fc 5d 99 b9 75 12 97 bc
       -0.0017174395 0.010491195 -0.00029252458 -0.018441418
000310 0c b0 15 3c d4 13 11 bd 62 e3 b2 3b 75 4e 81 3a
       0.009136211 -0.0354193 0.005459235 0.0009865301
000320 e6 50 f0 bb c0 1a aa ba 50 99 74 bb fb 43 9c 3c
       -0.0073338626 -0.0012977943 -0.0037322827 0.019075384
000330 62 2a 8e 3c 95 0a 2c 3b 64 0f 60 3a 44 1e dc bc
       0.017354194 0.0026251425 0.0008547215 -0.0268699
000340 57 31 40 bd a7 34 89 bc 7c e9 f5 ba e0 09 7e ba
       -0.046922054 -0.01674874 -0.00187616 -0.00096908025
000350 92 22 9d bc d5 c2 7b 3b 6c ba 71 ba 9a cf 69 3c
       -0.019181523 0.003841569 -0.00092211994 0.0142706875
000360 04 10 8e 3c dc af 8f bc 94 1d ad 3c 78 5f bf 3a
       0.017341621 -0.017539911 0.021132268 0.0014600595
000370 be e3 53 bb 6a 81 53 3c aa 09 54 3c 14 6a 25 ba
       -0.003233179 0.012909273 0.012941757 -0.00063100574
000380 84 8a 28 3a 01 e7 9f 3c dc 0f 80 3c 34 9c 35 3c
       0.0006429332 0.019519331 0.015632562 0.011084605
000390 08 e9 b1 ba fa 32 e8 ba 62 a5 9d ba 24 3d 14 bb
       -0.0013573477 -0.0017715388 -0.0012027437 -0.002261945
0003a0 16 98 1c bd 50 e0 63 3c 44 b5 9d 3b 20 d2 2d 38
       -0.038230978 0.013908461 0.0048128683 4.144211e-05
0003b0 da 3c d6 ba 1a ab 32 bc 12 05 37 bb 3a f6 5e bb
       -0.001634504 -0.010905052 -0.0027926606 -0.0034021274
0003c0 8d 95 a0 3c 78 87 f1 3b 93 7f 8d bb 33 ef 2a 3b
       0.019602561 0.0073708855 -0.0043181865 0.0026082515
0003d0 e9 3d 81 bd 09 b4 25 bb b8 9f 3d bc 86 57 8a 3a
       -0.063106366 -0.0025284311 -0.011573724 0.0010554648
0003e0 c0 6f 75 bb 2a 33 3a 3c 0b 5a ca bc 65 b6 76 bb
       -0.0037450641 0.0113647375 -0.024701139 -0.0037645337
0003f0 71 6e 88 3c ec 88 04 bd ae 1c b2 3a 80 72 3d bc
       0.016654225 -0.03235714 0.001358887 -0.011562943

gconv.2.fc.bias f4 [64]
000000 54 99 04 3d f9 02 8f 3c ec 59 85 bc 39 fe 83 bc
       0.032372788 0.017457472 -0.01627823 -0.016112434
000010 88 24 92 3d cc d0 47 3d c1 63 27 3d 23 77 80 bd
       0.07135874 0.04878311 0.040866617 -0.062727235
000020 24 06 83 ba 57 18 49 3d 10 48 13 3d cc b9 7c 3a
       -0.0009996337 0.049095478 0.035957396 0.0009640723
000030 72 c2 dc 3d 59 de 3e bc 46 21 24 3b 0a e5 72 bc
       0.10779275 -0.0116496915 0.0025044247 -0.014825115
000040 5c 56 92 ba e8 b7 6e bc 90 f3 71 3c 08 0b 9e 3c
       -0.0011164653 -0.014570214 0.0147675425 0.01929237
000050 60 7c b0 3d 35 c5 cc bc e6 c7 92 3d e7 f4 b9 3c
       0.08617473 -0.02499638 0.07167034 0.022699786
000060 3b 48 15 3d b7 af 66 3d fb 1d 96 3d 9d 11 c6 bc
       0.036445837 0.05631992 0.07329937 -0.02417832
000070 d4 e7 5d 3a 2d d5 96 3d f6 ab 1a 3c 56 d0 2f 3d
       0.0008465026 0.07364879 0.009440413 0.042923294
000080 6b 10 23 3c 77 81 c3 3b ba 89 6b bb 16 9e a2 bc
       0.009952645 0.005966361 -0.0035940246 -0.019850772
000090 48 0d 03 bd c0 61 4f bb 7d 0f 98 3c 8a c6 88 3a
       -0.031995088 -0.0031643957 0.018562073 0.0010435146
0000a0 d7 37 85 3d 36 22 89 bc a2 98 b2 3d d4 d4 4c 3c
       0.06504791 -0.016739946 0.08720519 0.012501914
0000b0 04 03 12 3d 9b e9 15 bd 80 dd 81 3c be 6f bf 3b
       0.035647407 -0.036599737 0.01585269 0.005842178
0000c0 67 a4 6b 3d f6 eb 9f bc 76 b2 35 bd 75 af 79 3d
       0.057529833 -0.019521695 -0.044359647 0.060958344
0000d0 f0 6c c2 3b 16 ab 18 3d 8c fc f3 3a 9e 74 89 3d
       0.0059333965 0.037272535 0.0018614694 0.06711696
0000e0 9f b3 0e 3a 45 01 81 bc 1d bc f1 3c 96 f9 bb b9
       0.0005443636 -0.015747676 0.029508645 -0.00035853375
0000f0 74 63 bc bc 2b 87 97 3d 76 e8 a4 3d cb 5e 12 bd
       -0.022996642 0.07398828 0.08052151 -0.035734933

fc.1.weight f4 [2, 64]
000000 7e 74 e5 3c 30 83 f7 3b cc 68 48 3d 92 89 87 ba
       0.02800965 0.0075534806 0.048928067 -0.0010340682
000010 6c 7d e2 3d 51 e9 eb 3c 40 7b d5 bd 99 e4 68 bd
       0.110590786 0.028797777 -0.10423899 -0.056858633
000020 d6 aa fe ba e1 4a c9 3d 4b 1a a2 3c 5b a4 87 bd
       -0.0019429575 0.09828735 0.019787928 -0.06623145
000030 3b 57 e8 3d 6c 39 1b 3c 68 72 e5 3c 3e cf 09 bd
       0.11344763 0.00947414 0.028008655 -0.033644907
000040 d2 99 17 3e 46 e2 15 3d 20 42 63 bd 16 02 18 3e
       0.14804772 0.036592744 -0.055482984 0.14844546
000050 0c 54 29 3e 28 e9 87 bd d7 fe 03 3e c0 f7 bf bd
       0.16535968 -0.06636268 0.12890182 -0.093734264
000060 4a eb 6a bd cc 9c 0c 3e f6 90 16 bd 97 fb 15 bd
       -0.057353295 0.13731688 -0.03675934 -0.036616888
000070 3f b6 45 3c 9b e6 14 3e 8d ee 8c 3d ba 98 25 3b
       0.012067377 0.14541094 0.068814375 0.0025268034
000080 1d 12 8e bd 32 55 ce 3b c2 eb 85 bd 59 74 75 bb
       -0.069370486 0.006296777 -0.06539108 -0.0037453382
000090 50 9f 72 3d ac 08 42 bd 54 20 95 bd 85 dd 80 bd
       0.059233963 -0.04737155 -0.07281557 -0.062922515
0000a0 3f 60 dd 3d ee 35 0d 3c d1 33 d1 3d 94 04 fd 3c
       0.10809373 0.008618815 0.10214961 0.030885972
0000b0 24 02 e8 3d 62 a9 a6 3d c3 00 81 bd c2 e3 b5 bd
       0.11328533 0.08137776 -0.062989734 -0.08881332
0000c0 c4 63 00 3e f2 95 72 3c 5b 94 bc bc b6 24 5c bd
       0.12538058 0.014806258 -0.02301996 -0.053745948
0000d0 c9 1e 96 bd 09 0e 63 bd a1 4c d0 ba d1 7f 8b 3d
       -0.073300906 -0.055433307 -0.0015891978 0.068114884
0000e0 c0 cb 8c 3c d5 d4 e3 ba c8 cb 5d bd ec 9a ee bb
       0.017187 -0.0017382154 -0.05414942 -0.0072816517
0000f0 25 66 af bd 6d 52 b3 3d 3d dd 18 3e 56 af 4c 3c
       -0.085644044 0.08755956 0.14928146 0.012492975
000100 6a 7b c4 3d 0b eb 80 bc f2 b2 c6 3d d8 58 b0 ba
       0.09593852 -0.015737077 0.097021 -0.0013454212
000110 25 7e 22 3d 7e 22 2d bd 12 a1 df bd 6e 2a 7c bd
       0.039671082 -0.042269222 -0.109193936 -0.0615639
000120 e8 16 9a bc d8 a8 de 3a 37 31 94 3d 8f 53 0c bd
       -0.01880975 0.0016987575 0.072359495 -0.034259375
000130 46 ca 17 bc 4a d4 ca 3d c3 a7 d9 ba 92 1d 1e bd
       -0.009264534 0.09903772 -0.0016605783 -0.03860242
000140 95 1a de 3c c7 9c 6b bc e9 ce b2 3b a8 14 1e 3d
       0.027112285 -0.01438064 0.0054567945 0.038593918
000150 15 d9 9e bd c5 07 46 bd 5a 6b 2a 3d 41 b9 fd bc
       -0.07756249 -0.048347253 0.041606285 -0.030972125
000160 69 a0 7e bd c3 e0 0e be e8 e2 28 be 8c b0 b7 3d
       -0.062164698 -0.13952927 -0.16492808 0.089692205
000170 13 27 0a 3d 90 5e b6 bd e2 3e 83 bd 2a f1 5b bc
       0.03372867 -0.08904755 -0.06408478 -0.013424197
000180 e4 97 a8 3d 54 2a 44 bc fe c1 08 bd 5d a2 94 bb
       0.08232096 -0.011972982 -0.03338813 -0.004535957
000190 7c b6 96 3c e2 47 97 bc 48 4d a5 bd 64 84 85 bb
       0.018397562 -0.018466894 -0.08071381 -0.00407462
0001a0 0c 4d dc bd 27 25 87 bd 94 9e 0a be 2e 38 0c 3c
       -0.10756883 -0.06598883 -0.13537055 0.008558316
0001b0 d6 90 4e 3d c2 41 bf 3d 54 da d2 3c 20 45 cd 3d
       0.050431095 0.09338714 0.025738873 0.1002295
0001c0 1c c1 e0 bd 16 13 66 3d cb 66 b4 bc c4 8c 06 be
       -0.10974333 0.056170546 -0.022021672 -0.13139635
0001d0 cf 14 c5 3c e3 c3 0f 3d de e0 6a 3b 7b 49 fa bd
       0.024057774 0.03509892 0.0035839598 -0.122210465
0001e0 0c 71 a4 3c e6 b3 8e bc 15 dc bc bd a6 97 a9 3d
       0.020073436 -0.017419767 -0.09221665 0.08280878
0001f0 c6 86 58 3c 95 b4 88 bd fa d4 b4 bc 7a f9 86 3c
       0.013215726 -0.06675068 -0.022074211 0.016476382

fc.1.bias f4 [2]
000000 35 a8 5f bc 97 b6 1f be
       -0.0136509435 -0.15596996
